checkpoint_final.pth (torch_old, 645 bytes, 2 tensors)

linear.weight f4 [3, 6]
000000 77 c1 a9 c0 50 51 08 3e 0d c6 09 3e 44 31 17 3f
       -5.3048663 0.13312268 0.13454457 0.5905955
000010 6c ba d9 be d6 73 82 be 28 0b 8b c0 d4 9f 3a 40
       -0.4252504 -0.25479 -4.345112 2.9160051
000020 64 e0 83 bf 52 44 13 40 b1 11 7f 3f b5 ef 30 3d
       -1.0302854 2.301045 0.9963637 0.043197352
000030 a6 e9 68 c0 e9 d8 01 c0 21 35 1d bf 87 a0 aa bf
       -3.6392608 -2.0288641 -0.61409193 -1.3330239
000040 93 f8 aa bf dd ca 40 be
       -1.3357109 -0.18827386

linear.bias f4 [3]
000000 7b 1c e7 c1 60 9e ed c1 c5 ee ee c1
       -28.888906 -29.702332 -29.866587
